my_dqn.pt (torch, 21327 bytes, 6 tensors)

net.0.weight f4 [64, 6]
-0.46043634 0.57410336 -17.592333 -5.5327425 1.0550307 -3.5950556 0.2749717 -1.5987566
-3.1442854 7.7389193 -0.34223703 -3.6075842 0.1912645 -0.84016544 -1.6608424 11.296528
-0.15951563 -2.7860842 -0.26931447 -0.3469067 0.35481635 -0.045770388 0.07926965 0.09506462
-0.2310259 0.14156088 -0.097110115 0.042853184 -0.31390607 0.34929457 -0.05308576 -0.06828767
-0.0792576 0.40419322 -0.3122233 0.017260332 -0.00050708355 -0.23940393 0.020909287 0.07797855
-0.10697192 -0.16603453 0.13714495 -3.1264749 -4.2766867 1.8551195 -1.6272069 -5.7582717
0.09434308 -3.2466679 -4.137547 3.0214572 -1.0344521 -6.669511 -0.007517838 5.4086285
5.266872 0.39176935 3.506768 4.749147 -0.0077822017 4.927049 4.7734003 0.6872855
3.460115 4.7116294 0.0034244782 3.321752 4.9422092 9.7239485 2.8907177 15.100058
0.13437916 -3.7514024 -4.4553337 3.038675 -1.5755565 -6.4738145 -0.39174247 -0.15941378
0.31291416 0.13846377 -0.23168835 0.33577302 0.16534294 -0.839996 -3.3844376 9.967892
-0.22671181 -4.818085 0.3161724 -0.92416054 -3.2717302 7.7741838 -0.52397853 -5.6740403
-0.26035556 -0.07912922 0.3061656 -0.13030076 -0.28209144 -0.28834495 0.02096184 -2.5654488
-5.505325 3.834989 -0.3222033 -6.3114285 -0.008529514 5.0979548 5.286772 0.79286325
3.7395477 5.124492 0.17633033 -1.1334218 -2.8866303 8.456318 -0.20229274 -1.8692973
0.17951332 -1.4838624 -2.9532611 8.741562 -0.060109943 -3.1175504 -0.21108037 0.015289854
-0.3702846 -0.25918308 -0.026941802 0.3815083 0.0087524885 1.1407114 11.781363 13.267837
1.5427568 22.075058 -0.8143122 -0.05327522 0.30509606 -0.096011296 0.26364946 -4.206756
0.044231266 -0.2440636 -3.1846843 9.5047455 -0.12675662 0.66789955 0.25999308 -4.104301
-4.2285466 2.7211125 -2.2270513 -6.5161805 0.008014442 1.0380285 11.490406 12.907467
1.5886936 22.154165 0.08779964 -1.5962974 -4.082236 7.0536947 0.10608198 -6.125172
-0.00861198 5.6636868 5.41855 0.71175265 3.8169405 4.905718 0.03280139 -1.9677258
-4.1389704 5.9114795 -0.23181112 -3.1842833 0.10118287 -4.504219 -5.8536844 -4.7269797
-4.443482 -8.449665 -0.25606394 0.13187557 0.056730673 0.18096922 -0.30254486 -0.21344972
-0.17927727 -0.13123278 -0.2242958 0.1343426 -0.15467343 0.20470105 -0.14604278 -0.23333812
0.01819795 0.013954481 -0.11366448 -0.36661565 0.09435347 -6.841177 -5.436458 -0.5191463
-4.4777775 -6.9621077 0.299022 -2.3933072 -3.873943 4.7187505 -0.69260234 -5.0531297
0.108605005 -5.2863007 -5.3019 -2.2827306 -4.709742 -8.471841 -0.27173185 -0.22877705
-0.19787756 -0.39720747 -0.06969955 -0.3289782 0.017409032 -5.340156 -5.624046 -0.8969158
-2.7962112 -7.2563987 -0.009477316 5.757704 4.2413454 1.0912567 3.6509423 5.439947
-0.22159034 -0.15658385 0.19484195 0.39302567 -0.08357899 0.17292574 -0.2653957 0.053289674
0.010715644 0.06481767 -0.15218854 0.23670574 -0.34375548 -0.3946151 -0.15561086 -0.23406394
00000000: 50be ebbe 70f8 123f 19bd 8cc1 3a0c b1c0
00000010: 3f0b 873f 6415 66c0 17c9 8c3e 0ea4 ccbf
00000020: f93b 49c0 3aa5 f740 b139 afbe a9e2 66c0
00000030: d7da 433e 1515 57bf 7c96 d4bf 94be 3441
00000040: 1158 23be 344f 32c0 96e3 89be c19d b1be
00000050: 7daa b53e bb79 3bbd 2058 a23d 3db1 c23d
00000060: 0e92 6cbe 56f5 103e abe1 c6bd d286 2f3d
00000070: 4cb8 a0be bdd6 b23e 7470 59bd 68da 8bbd
00000080: cf51 a2bd 6af2 ce3e bbdb 9fbe 8a65 8d3c
00000090: cded 04ba 4e26 75be f449 ab3c 38b3 9f3d
000000a0: 1814 dbbd f504 2abe ba6f 0c3e 2a18 48c0
000000b0: 9eda 88c0 8e74 ed3f 5148 d0bf c343 b8c0
000000c0: f236 c13d 68c9 4fc0 c966 84c0 8e5f 4140
000000d0: ed68 84bf a26c d5c0 3258 f6bb 7c13 ad40
000000e0: 378a a840 fe95 c83e e36e 6040 03f9 9740
000000f0: d701 ffbb 63aa 9d40 b2bf 9840 f1f1 2f3f
00000100: 8672 5d40 abc5 9640 366d 603b 9697 5440
00000110: 9426 9e40 4b95 1b41 8501 3940 d699 7141
00000120: b19a 093e fa16 70c0 1892 8ec0 a779 4240
00000130: d6ab c9bf 7d29 cfc0 7892 c8be 5e3d 23be
00000140: 4936 a03e 72c9 0d3e b63f 6dbe 71ea ab3e
00000150: a94f 293e fa09 57bf a09a 58c0 7c7c 1f41
00000160: 2427 68be c12d 9ac0 59e1 a13e c995 6cbf
00000170: 0764 51c0 1dc6 f840 7523 06bf bd91 b5c0
00000180: 534d 85be 800e a2bd bdc1 9c3e 906d 05be
00000190: 4a6e 90be f3a1 93be 2ab8 ab3c 5030 24c0
000001a0: 9f2b b0c0 7670 7540 d5f7 a4be 39f7 c9c0
000001b0: 60bf 0bbc 7222 a340 3c2d a940 16f9 4a3f
000001c0: c054 6f40 d7fb a340 f08f 343e f713 91bf
000001d0: 8dbe 38c0 144d 0741 d425 4fbe 2245 efbf
000001e0: 57d2 373e 34ef bdbf 3b02 3dc0 70dd 0b41
000001f0: d835 76bd f285 47c0 7425 58be 4c82 7a3c
00000200: f195 bdbe a5b3 84be 0eb5 dcbc 0e55 c33e
00000210: 9966 0f3c d502 923f 7680 3c41 0f49 5441
00000220: 0e79 c53f b899 b041 c476 50bf 1e37 5abd
00000230: 8d35 9c3e 92a1 c4bd 10fd 863e bf9d 86c0
00000240: d82b 353d cfeb 79be ded1 4bc0 7013 1841
00000250: 7dcc 01be 77fb 2a3f d01d 853e 6f56 83c0
00000260: 4150 87c0 b526 2e40 0288 0ec0 8d84 d0c0
00000270: 024f 033c 1ede 843f b4d8 3741 fc84 4e41
00000280: 505a cb3f bb3b b141 4cd0 b33d 7953 ccbf
00000290: ada1 82c0 deb7 e140 8241 d93d 6901 c4c0
000002a0: 4319 0dbc ec3c b540 c364 ad40 6c35 363f
000002b0: c148 7440 a4fb 9c40 c05a 063d 70de fbbf
000002c0: 7272 84c0 d72a bd40 e55f 6dbe 4ccb 4bc0
000002d0: f738 cf3d 9022 90c0 6251 bbc0 6b43 97c0
000002e0: 0131 8ec0 d431 07c1 d01a 83be 640a 073e
000002f0: 6c5e 683d ff4f 393e 29e7 9abe 9092 5abe
00000300: 7694 37be e361 06be ccad 65be 1b91 093e
00000310: b662 1ebe 279d 513e 3d8c 15be 30f0 6ebe
00000320: de13 953c 56a1 643c ecc8 e8bd 0cb5 bbbe
00000330: 643c c13d ecea dac0 77f7 adc0 c6e6 04bf
00000340: f449 8fc0 96c9 dec0 6919 993e f22b 19c0
00000350: afee 77c0 0100 9740 634e 31bf 3db3 a1c0
00000360: 4d6c de3d 6029 a9c0 2aa9 a9c0 4218 12c0
00000370: 35b6 96c0 a98c 07c1 7020 8bbe 8844 6abe
00000380: 6aa0 4abe c75e cbbe a3be 8ebd d56f a8be
00000390: 639d 8e3c 8fe2 aac0 2ff8 b3c0 469c 65bf
000003a0: 20f5 32c0 6b34 e8c0 bf46 1bbc 1c3f b840
000003b0: 1ab9 8740 4dae 8b3f 0aa9 6940 0c14 ae40
000003c0: 94e8 62be 8457 20be a684 473e a93a c93e
000003d0: 762b abbd 7213 313e f2e1 87be 4646 5a3d
000003e0: ab90 2f3c 20bf 843d 50d7 1bbe fd62 723e
000003f0: b800 b0be fe0a cabe 7458 1fbe 75ae 6fbe

net.0.bias f4 [64]
-7.6891656 25.383936 27.074318 -0.2659794 0.26803327 0.38826627 -0.2181107 22.07632
22.205675 -19.993683 -19.904247 -10.759832 22.103085 -0.059611954 25.654799 24.779097
-0.20440531 21.419905 -19.98019 26.157467 26.148813 -0.34565544 7.0470366 0.13230754
26.773462 21.833466 7.1700783 23.930779 -20.241495 23.782303 12.61433 -0.16489553
-0.33772323 -0.064205825 20.40121 24.082432 16.932827 0.13410224 20.593708 -20.199131
-0.21870522 0.1346674 0.021935916 -0.006754881 -0.30465907 -0.39597204 -8.588922 -0.056574356
20.790216 -0.2211562 0.2852822 -23.152637 27.461784 25.959742 0.18586503 24.962278
-0.37292063 24.006462 12.222397 0.35027048 0.2639815 25.976892 0.033146407 -6.413353
00000000: a50d f6c0 4d12 cb41 3498 d841 742e 88be
00000010: a83b 893e d6ca c63e 6958 5fbe 4e9c b041
00000020: 39a5 b141 10f3 9fc1 e63b 9fc1 4628 2cc1
00000030: 1ed3 b041 aa2b 74bd 073d cd41 973b c641
00000040: a04f 51be f75b ab41 6ed7 9fc1 7e42 d141
00000050: c530 d141 c0f9 b0be 5381 e140 a17b 073e
00000060: 0d30 d641 f0aa ae41 4871 e540 3c72 bf41
00000070: 95ee a1c1 2842 be41 4cd4 4941 60da 28be
00000080: 0fea acbe 587e 83bd ae35 a341 d2a8 c041
00000090: 6e76 8741 1952 093e eabf a441 d297 a1c1
000000a0: 43f4 5fbe 40e6 093e f3b2 b33c 0c58 ddbb
000000b0: 46fc 9bbe d9bc cabe 396c 09c1 83ba 67bd
000000c0: 5d52 a641 c576 62be 8210 923e 9a38 b9c1
000000d0: bcb1 db41 8dad cf41 6753 3e3e bfb2 c741
000000e0: 74ef bebe 3c0d c041 f08e 4341 a756 b33e
000000f0: 9528 873e add0 cf41 87c4 073d 303a cdc0

net.2.weight f4 [64, 64]
-0.02462326 -0.111866474 0.026049867 -0.05638458 -0.045872435 -0.052371904 0.113676354 0.025713429
-0.112324774 0.014751866 -0.12447272 0.0666935 -0.036133766 0.02733329 0.015240088 0.085636124
-0.019763425 -0.09580399 -0.0381971 -0.121655986 -0.027277216 0.10942601 -0.003067553 -0.10314129
-0.06732601 0.044786423 -0.052563325 0.025430188 -0.030039877 -0.086726025 0.08579649 0.090457544
0.0064649135 0.015432343 -0.11584453 0.060862035 0.031862006 0.03372954 0.06441513 0.008448124
-0.0048757344 -0.060538903 0.02401489 0.095133245 -0.063412696 -0.06318757 0.08642134 0.015177369
0.038626343 -0.07316388 0.01045616 0.0719983 -0.10985023 0.115783006 0.046064585 -0.050943688
-0.068924025 -0.01781018 -0.039196253 0.04466161 0.045746326 -0.025942922 -0.015422836 -0.08584863
-0.06802432 -0.08327946 -0.09685032 -0.051009744 0.023193195 0.0787539 -0.100982815 0.08950366
0.07278378 0.093055725 -0.030294316 0.0024221642 0.11242564 0.034121424 -0.007856609 0.060192302
-0.055399254 0.09033607 -0.07010393 -0.013238062 -0.108361065 -0.049822435 0.07033205 -0.10716343
-0.060481846 -0.04394041 0.02332213 0.016726747 -0.07515731 -0.03725554 0.09947136 0.042690307
-0.10045771 -0.11259504 -0.06018591 -0.11176187 -0.10489124 -0.11521895 0.0494736 0.024395464
0.038922638 0.09057261 -0.06478588 0.010556519 -0.033648774 0.023017868 -0.0965202 -0.030279532
-0.06919168 0.11845823 0.115532875 -0.12350027 -0.08945675 -0.045934163 -0.11717276 0.008455709
0.042938665 -0.020577818 0.011703104 -0.06926161 -0.047125682 -0.13272247 0.026792899 -0.0707109
-0.31292707 0.2812943 0.08115966 -0.0034414672 -0.028589472 0.015156001 -0.071180284 0.1563343
0.11343126 -0.35605264 -0.5137913 0.16863827 0.15105627 -0.014014497 0.23715368 0.17864579
0.02012384 0.095895566 -0.28336495 0.06048911 0.20647636 -0.058005944 1.2692305 0.03980254
0.013932268 0.2787154 1.3530908 0.19585593 -0.56713593 0.116801016 -0.04383115 -0.049724087
-0.005259678 -0.122289166 2.2971725 0.16140549 0.17440023 -0.043099657 0.9951006 -0.3312827
-0.026231796 0.029316097 0.07675414 -0.025829926 0.9192887 -0.098739535 0.5694076 -0.08623293
0.36374936 -0.058276445 0.11558992 -2.5159633 0.0713433 0.21969627 -0.08699757 0.07813171
0.0051463097 0.1200595 4.485905 -0.0129086375 -0.01795125 2.731156 0.10194382 -0.4316927
-0.13711871 0.015672646 0.00043127374 0.088348284 -0.10178362 -0.066228196 -0.09588508 -0.037735656
-0.06097668 0.046625193 -0.050452247 -0.116092764 0.0935673 -0.0074507147 -0.05993898 -0.102819845
0.039925292 0.013678824 0.07462128 -0.13933827 -0.006357102 -0.0043252558 -0.047334433 -0.124299586
-0.028481822 -0.0893707 -0.10599362 -0.082930595 0.052956644 -0.10412768 0.025411755 0.06369357
0.024515808 -0.10805407 -0.063445404 0.03724817 0.0402153 -0.068507135 -0.1312312 -0.0976396
-0.04060036 0.09092213 0.083848014 0.033147886 -0.0009240188 -0.034798905 -0.09809201 0.10972577
-0.04789929 -0.0063821822 -0.08539125 0.07210168 0.09004981 -0.13780433 -0.039654 -0.060382754
0.09791081 -0.123706944 -0.13137425 -0.033181787 0.11354242 -0.0030504782 -0.05496934 -0.10760527
00000000: b8b6 c9bc 401a e5bd 8866 d53c 84f3 66bd
00000010: bce4 3bbd ec83 56bd 26cf e83d f8a4 d23c
00000020: 880a e6bd d0b1 713c 8eeb febd 9a96 883d
00000030: 0001 14bd 10ea df3c 90b1 793c fe61 af3d
00000040: e8e6 a1bc e234 c4bd 9074 1cbd c626 f9bd
00000050: 7874 dfbc be1a e03d 0009 49bb be3b d3bd
00000060: 38e2 89bd f871 373d a44c 57bd f852 d03c
00000070: 3016 f6bc 6a9d b1bd 12b6 af3d ce41 b93d
00000080: a0d7 d33b f0d7 7c3c e63f edbd 784a 793d
00000090: bc81 023d fc27 0a3d 14ec 833d 006a 0a3c
000000a0: a0c4 9fbb a4f7 77bd e0ba c43c 38d5 c23d
000000b0: 84de 81bd 7c68 81bd acfd b03d 80aa 783c
000000c0: a836 1e3d f2d6 95bd 5050 2b3c d873 933d
000000d0: 28f9 e0bd a41f ed3d 38ae 3c3d 54aa 50bd
000000e0: 0a28 8dbd a8e6 91bc 408c 20bd 18ef 363d
000000f0: 8060 3b3d 4086 d4bc 10b0 7cbc 68d1 afbd
00000100: 5650 8bbd 6c8e aabd 7659 c6bd 98ef 50bd
00000110: a8ff bd3c ba49 a13d 14d0 cebd b24d b73d
00000120: aa0f 953d 0094 be3d c92b f8bc 2cbd 1e3b
00000130: 6a3f e63d e8c2 0b3d 02b9 00bc 348c 763d
00000140: 54ea 62bd 1e02 b93d a692 8fbd 75e4 58bc
00000150: 68ec ddbd 9c12 4cbd 400a 903d 8078 dbbd
00000160: d0bb 77bd dcfa 33bd 0d0e bf3c 8806 893c
00000170: 13ec 99bd 4499 18bd a4b7 cb3d 08dc 2e3d
00000180: c6bc cdbd 3a98 e6bd 8085 76bd 68e3 e4bd
00000190: 38d1 d6bd eaf7 ebbd d4a4 4a3d ffd8 c73c
000001a0: 586d 1f3d 227e b93d 76ae 84bd 40f5 2c3c
000001b0: 4cd3 09bd f88f bc3c 62ac c5bd c80c f8bc
000001c0: 5eb4 8dbd 3a9a f23d 809c ec3d b6ed fcbd
000001d0: 1a35 b7bd 7625 3cbd 46f8 efbd d089 0a3c
000001e0: 74e0 2f3d d092 a8bc 60be 3f3c 08d9 8dbd
000001f0: dc06 41bd 66e8 07be c87c db3c e0d0 90bd
00000200: fa37 a0be ce05 903e 0937 a63d 3d8a 61bb
00000210: 7834 eabc e050 783c f8c6 91bd 1916 203e
00000220: a64e e83d 884c b6be d487 03bf 83af 2c3e
00000230: 7fae 1a3e 109d 65bc 6ad8 723e ecee 363e
00000240: c0da a43c e564 c43d 3615 91be 6ec3 773d
00000250: 8a6e 533e a497 6dbd 2576 a23f fd07 233d
00000260: 2b44 643c c9b3 8e3e 1432 ad3f 758e 483e
00000270: d22f 11bf 5f35 ef3d 4b88 33bd 7cab 4bbd
00000280: 6059 acbb be72 fabd e004 1340 7b47 253e
00000290: f995 323e 4489 30bd eabe 7e3f e39d a9be
000002a0: 10e4 d6bc 5028 f03c 4631 9d3d 4899 d3bc
000002b0: 8156 6b3f f437 cabd b2c4 113f e49a b0bd
000002c0: 5b3d ba3e 48b3 6ebd 68ba ec3d 8b05 21c0
000002d0: 701c 923d 0ff8 603e c82b b2bd 8503 a03d
000002e0: 60a2 a83b c1e1 f53d 898c 8f40 c07e 53bc
000002f0: 800e 93bc 43cb 2e40 ecc7 d03d d306 ddbe
00000300: d968 0cbe ec63 803c 951c e239 f2ef b43d
00000310: ee73 d0bd a6a2 87bd 665f c4bd b490 1abd
00000320: afc2 79bd 0ffa 3e3d 04a7 4ebd 0bc2 edbd
00000330: 36a0 bf3d 2025 f4bb 9382 75bd 3693 d2bd
00000340: b488 233d 251d 603c 0bd3 983d b1ae 0ebe
00000350: 3d4f d0bb e0ba 8dbb c0e1 41bd c890 febd
00000360: b652 e9bc fc07 b7bd 2f13 d9bd 84d7 a9bd
00000370: 11e9 583d e540 d5bd 502c d03c c671 823d
00000380: 60d5 c83c 744b ddbd aaef 81bd 8991 183d
00000390: ccb8 243d 784d 8cbd 7961 06be 45f7 c7bd
000003a0: 904c 26bd 6235 ba3d 82b8 ab3d 14c6 073d
000003b0: da39 72ba 4c89 0ebd 77e4 c8bd e8b7 e03d
000003c0: 0c32 44bd a021 d1bb 9ce1 aebd 0caa 933d
000003d0: 096c b83d 941c 0dbe 3c6c 22bd e853 77bd
000003e0: 7685 c83d 115a fdbd f986 06be a0e9 07bd
000003f0: ee88 e83d 88ea 47bb 8827 61bd 2760 dcbd

net.2.bias f4 [64]
-0.05027619 -0.14998926 25.100985 -0.10641337 27.255583 -21.615498 0.05656639 -0.044540863
0.06558479 0.07893558 0.021102453 -7.6222043 24.814377 0.009043836 25.357384 -24.266792
24.890087 -0.031811967 -0.02285674 -0.018529112 0.0010288839 0.013495406 0.020159665 26.16103
-0.10219124 -0.11327039 25.798388 0.011309455 0.047037985 25.474266 -0.13168909 24.131777
23.660336 18.85539 -0.09456687 28.589096 11.619052 24.419195 29.246458 -0.030884642
-0.056918636 27.510033 25.525385 0.007374027 0.02351619 16.721563 26.127363 0.028757498
0.057714272 25.96259 26.68753 0.014242048 -0.036951184 -0.009651704 27.987335 25.752197
0.36210302 -0.11530395 -0.13026716 0.026703015 -0.10617582 17.455328 0.069927365 -0.06987386
00000000: 68ee 4dbd c996 19be d1ce c841 41ef d9bd
00000010: 6f0b da41 8aec acc1 29b2 673d 7b70 36bd
00000020: 5251 863d faa8 a13d 0ddf ac3c 19e9 f3c0
00000030: d883 c641 992c 143c ecdb ca41 6422 c2c1
00000040: e61e c741 444d 02bd 0f3e bbbc 5dca 97bc
00000050: 9ddb 863a d61b 5d3c e225 a53c ca49 d141
00000060: a449 d1bd 4efa e7bd 1963 ce41 4b4b 393c
00000070: e7aa 403d 4ccb cb41 81d9 06be e10d c141
00000080: 5e48 bd41 d7d7 9641 46ac c1bd 78b6 e441
00000090: a3e7 3941 835a c341 bff8 e941 ca01 fdbc
000000a0: 8423 69bd 8c14 dc41 fd33 cc41 d2a1 f13b
000000b0: 06a5 c03c c3c5 8541 d704 d141 d894 eb3c
000000c0: cd65 6c3d 62b3 cf41 1080 d541 7b57 693c
000000d0: 205a 17bd 2e22 1ebc 10e6 df41 8004 ce41
000000e0: 9165 b93e 7a24 ecbd c164 05be 48c0 da3c
000000f0: b572 d9bd 83a4 8b41 1436 8f3d 071a 8fbd

net.4.weight f4 [4, 64]
0.12048851 -0.095449105 -0.042646106 -0.056122854 -0.12132811 -0.33434486 -0.017308107 0.0861399
0.03658032 -0.050372347 0.031238467 -0.4282742 -0.24642682 0.10519904 0.24237657 -0.43281254
0.45331112 0.02361393 0.07874215 0.0424572 -0.107321635 -0.10171604 -0.0763887 0.7122491
-0.019515902 -0.03270518 0.1608303 0.0055960338 -0.06557809 0.06295841 -0.029660532 0.44230697
0.23064262 1.383364 0.057962865 0.79975605 0.13168852 0.6735786 1.3204777 0.028860644
0.10427341 0.325932 0.10641145 0.07978288 0.0846102 1.4950452 0.86603284 -0.019125402
-0.09582266 0.015512421 0.8571394 0.06231827 -0.043990538 0.069309235 0.31687468 -0.1563815
0.0514508 0.09799801 -0.029234454 0.007894769 -0.010449067 1.7398342 0.04868281 0.04320723
-0.044604868 0.10649356 0.17846094 0.004051968 -0.065511815 -0.2680921 -0.057345722 -0.071559675
-0.0013606193 0.09314501 0.09591017 -0.7470927 -0.028567055 0.05293962 0.2262763 -0.54536223
0.43964225 -0.1065191 0.088826396 0.02907221 0.13818483 0.042380348 -0.050775245 0.8712812
-0.03356641 0.073402345 0.34403285 -0.10375894 0.11761999 0.2693376 -0.023130992 0.44347966
0.085651636 1.8978431 -0.10713272 0.9708258 -0.09056853 0.6536893 1.6034791 -0.00255567
-0.09969182 0.38463897 0.09821133 0.044516884 0.009942413 1.668629 1.136563 -0.0038800687
-0.030485375 0.122925654 1.12849 -0.04433097 -0.004665762 0.04917498 0.33063683 -0.051674988
0.06464619 0.009843335 -0.08586151 -0.113553 0.042935908 1.1614625 0.025792077 0.003937934
0.072203785 -0.108646646 0.5340203 -0.08330767 0.52847594 -0.6029676 0.0228636 -0.05385463
0.08820247 0.037696898 0.052385207 -0.53350115 0.4716531 -0.107675806 0.93970454 -0.44983122
0.39999148 0.01757811 0.10618932 0.06108074 -0.05181016 -0.08319391 0.013411996 0.5866264
-0.04765248 -0.104304805 0.53952473 0.011977462 0.0011252537 0.52106786 -0.012405691 0.53860784
0.4659398 2.7990425 0.017685732 0.6126995 -0.95513445 0.45196912 0.47612828 0.031170875
0.038158983 0.52139175 0.5237512 0.086326435 0.13121624 4.5804424 0.6464065 -0.0524565
0.036258075 0.53102225 0.68836385 -0.024074744 -0.11562331 -0.05524242 0.43825305 0.53320646
0.00028197182 0.0029138923 -0.026024502 -0.05281025 -0.043090913 5.6965795 0.033615947 -0.027437279
0.054771766 0.021815555 0.5284404 -0.010508701 0.4169882 -0.34061047 0.037635442 -0.008987748
-0.09871871 0.0291657 -0.06011445 -0.6566411 0.47799253 -0.09997299 0.7295226 -0.76972073
0.5227813 -0.075896606 -0.06356805 -0.0996865 -0.0020686742 -0.108343646 0.00040456653 0.63266283
-0.053346485 0.026236154 0.5332061 -0.08145388 -0.011463668 0.50770867 -0.011256668 0.73878634
0.6460928 3.622064 -0.023566842 0.6070545 1.4656967 0.6391273 0.81533766 -0.05194241
-0.0018427968 0.490283 0.5233225 0.08372124 -0.03471385 5.289268 0.69988257 0.10157098
-0.09455697 0.52058506 0.9800301 -0.06918017 0.0580751 0.0864314 0.47576386 0.4950042
-0.048695084 -0.071140274 -0.010915781 0.054586902 -0.047694564 6.6755204 0.074452 0.0106515065
00000000: aec2 f63d d27a c3bd afad 2ebd 14e1 65bd
00000010: df7a f8bd 402f abbe bbc9 8dbc 1e6a b03d
00000020: 3fd5 153d 3c53 4ebd d0e7 ff3c c246 dbbe
00000030: 5057 7cbe 9872 d73d 9031 783e 9b99 ddbe
00000040: 6518 e83e 0072 c13c 9043 a13d 9ae7 2d3d
00000050: 72cb dbbd 8050 d0bd ae71 9cbd f555 363f
00000060: d0df 9fbc def5 05bd b3b0 243e ef5e b73b
00000070: ce4d 86bd 57f0 803d a5fa f2bc 0f76 e23e
00000080: 942d 6c3e 1212 b13f 786a 6d3d d0bc 4c3f
00000090: 5bd9 063e a66f 2c3f 6a05 a93f 286d ec3c
000000a0: 4c8d d53d 8fe0 a63e 3fee d93d 3565 a33d
000000b0: 1d48 ad3d a45d bf3f 54b4 5d3f e0ac 9cbc
000000c0: ac3e c4bd cf27 7e3c 7d6d 5b3f 7141 7f3d
000000d0: 6c2f 34bd 00f2 8d3d 663d a23e 7922 20be
000000e0: 13be 523d 2eb3 c83d 187d efbc 1059 013c
000000f0: 9032 2bbc e3b2 de3f a067 473d 10fa 303d
00000100: 98b3 36bd 4c19 da3d 77be 363e 5fc6 843b
00000110: 0f2b 86bd 5e43 89be 59e3 6abd e18d 92bd
00000120: cf56 b2ba d0c2 be3d 8d6c c43d 7841 3fbf
00000130: 7505 eabc 37d7 583d f9b4 673e dc9c 0bbf
00000140: ca18 e13e b026 dabd 9dea b53d d828 ee3c
00000150: 5380 0d3e 0497 2d3d b4f9 4fbd 490c 5f3f
00000160: ef7c 09bd f853 963d 1325 b03e 917f d4bd
00000170: c0e2 f03d 9ee6 893e 357d bdbc c40f e33e
00000180: 206a af3d 86ec f23f 6668 dbbd 0a88 783f
00000190: fe7b b9bd 2f58 273f ce3e cd3f 077d 27bb
000001a0: 3a2b ccbd 66ef c43e 0623 c93d 5657 363d
000001b0: 81e5 223c a395 d53f e57a 913f c048 7ebb
000001c0: 77bc f9bc 72c0 fb3d 5c72 903f 6494 35bd
000001d0: 40e3 98bb b46b 493d 3b49 a93e 27a9 53bd
000001e0: 3965 843d f045 213c 29d8 afbd 7a8e e8bd
000001f0: 90dd 2f3d ceaa 943f e849 d33c c909 813b
00000200: 94df 933d 2282 debd 8eb5 083f 369d aabd
00000210: 334a 073f 165c 1abf 724c bb3c ac96 5cbd
00000220: 7fa3 b43d 1068 1a3d df91 563d 8893 08bf
00000230: 847c f13e 2285 dcbd 7a90 703f 4750 e6be
00000240: afcb cc3e f8ff 8f3c c979 d93d cc2f 7a3d
00000250: e436 54bd 9261 aabd fdbd 5b3c 262d 163f
00000260: 3f2f 43bd c29d d5bd 4b1e 0a3f 1e3d 443c
00000270: 407d 933a b464 053f 3d41 4bbc 34e2 093f
00000280: a98f ee3e 8323 3340 abe1 903c e0d9 1c3f
00000290: b183 74bf 7f68 e73e 16c7 f33e 105a ff3c
000002a0: 984c 1c3d ee79 053f 8f14 063f eacb b03d
000002b0: 8d5d 063e fc92 9240 e57a 253f a0dc 56bd
000002c0: 5983 143d 13f1 073f 9d38 303f 6638 c5bc
000002d0: eacb ecbd e045 62bd b462 e03e 3880 083f
000002e0: 9ed5 9339 00f7 3e3b 5631 d5bc 904f 58bd
000002f0: 1980 30bd 614a b640 e0b0 093d 25c4 e0bc
00000300: 5c58 603d 89b6 b23c df47 073f b02c 2cbc
00000310: 7a7f d53e 7f64 aebe 9f27 1a3d 5941 13bc
00000320: 092d cabd e8ec ee3c 923a 76bd a219 28bf
00000330: 70bb f43e a4be ccbd fec1 3a3f 6b0c 45bf
00000340: ffd4 053f ae6f 9bbd f72f 82bd 7028 ccbd
00000350: 9892 07bb 46e3 ddbd 001c d439 31f6 213f
00000360: d881 5abd 34ed d63c 3280 083f 4bd1 a6bd
00000370: 1cd2 3bbc 32f9 013f e36d 38bc 1a21 3d3f
00000380: 5666 253f e6cf 6740 400f c1bc ec67 1b3f
00000390: f39b bb3f d99d 233f f8b9 503f 91c1 54bd
000003a0: 008a f1ba 6006 fb3e 77f8 053f 0b76 ab3d
000003b0: 1c30 0ebd af41 a940 812b 333f 7204 d03d
000003c0: 16a7 c1bd 1045 053f 41e3 7a3f 55ae 8dbd
000003d0: 28e0 6d3d f202 b13d 5297 f33e 3171 fd3e
000003e0: 7f74 47bd feb1 91bd 1bd8 32bc 8496 5f3d
000003f0: 605b 43bd dd9d d540 4a7a 983d a883 2e3c

net.4.bias f4 [4]
13.908286 9.926606 17.641916 22.17489
00000000: 5788 5e41 61d3 1e41 a522 8d41 2d66 b141
