src/my_dqn.pt (torch, 21391 bytes, 6 tensors)

net.0.weight f4 [64, 6]
000000 28 66 18 3d 14 01 b9 c0 6d 5b d8 c0 04 40 13 bf
       0.0372068 -5.7813816 -6.7611604 -0.57519555
000010 f6 07 5a c0 d8 c9 07 c1 a5 11 1c 3e e8 ac 18 bf
       -3.406736 -8.486778 0.15241106 -0.59638834
000020 cc 9c 81 c0 cb b4 27 41 e9 a3 ed be fe 65 da be
       -4.0503902 10.481639 -0.46414116 -0.4265594
000030 a6 12 65 bc ec 6d 84 c0 3d a3 b7 c0 c8 a7 f9 c0
       -0.013981497 -4.138418 -5.7386765 -7.801731
000040 85 f5 a7 c0 69 2b e6 40 7c 54 b8 be 3a 26 e3 bd
       -5.2487206 7.192799 -0.36001956 -0.110912755
000050 c7 be b7 3c 2c 08 8f 3d c5 c8 b4 be e0 e2 1e 3e
       0.022429837 0.069839805 -0.35309425 0.15516233
000060 01 24 7f bd 52 8c c2 be 70 1f d1 bc 83 a4 86 3e
       -0.062290195 -0.3799768 -0.025527686 0.26297387
000070 32 11 a5 3d 00 15 b6 3e bf 08 5d be e8 fe d0 3e
       0.0805992 0.35562897 -0.21585368 0.40819478
000080 8a 88 0c be bb cb c6 be 8e af fc bd 43 75 34 be
       -0.1372396 -0.3882731 -0.12338172 -0.17622857
000090 31 91 83 3e 5b 5f 21 bf 7b 77 9e c0 82 fe 0a 41
       0.2569671 -0.63036126 -4.952085 8.687136
0000a0 d7 7c 41 bf 2d 33 2d c0 e6 3b 83 3c 01 43 f0 bf
       -0.75581115 -2.7062485 0.016019773 -1.8770448
0000b0 4c 7e b8 c0 98 01 17 41 1d 9a 49 be fd bd 82 c0
       -5.765417 9.437889 -0.19687696 -4.085692
0000c0 46 97 01 3e 55 30 68 c0 09 05 ac c0 00 b5 49 40
       0.12655362 -3.62795 -5.3756146 3.1516724
0000d0 4d 06 1b c0 67 7e be c0 f0 f1 96 be d3 59 64 3f
       -2.4222596 -5.95293 -0.2948146 0.8919956
0000e0 c4 7e 60 c1 01 5e 08 c1 94 f7 15 3f 53 87 e2 c0
       -14.030949 -8.52295 0.585809 -7.079019
0000f0 82 d2 50 3e 94 24 c7 bf d8 e3 9d c0 3f bd f1 40
       0.20392802 -1.5558038 -4.934063 7.5543513
000100 da 69 2f bf 65 a0 80 c0 94 9b 4a be bb cd e5 3d
       -0.6852089 -4.0195794 -0.19785911 0.112208806
000110 7f 81 59 3e 45 98 b0 bd fa d7 96 be 65 63 c7 3e
       0.21240805 -0.08622793 -0.29461652 0.3894302
000120 8d 42 ef 3d 47 14 49 bf e0 de 43 c0 bc e8 2a 41
       0.116826154 -0.78546566 -3.0604782 10.68182
000130 7e 5b da be 9c d9 ca 3e 80 55 c3 3d d4 c1 03 c0
       -0.42647928 0.39619148 0.09537792 -2.0587053
000140 c6 b5 b4 c0 69 d0 9a 40 83 9e 3a bf 94 74 96 c0
       -5.647189 4.8379407 -0.7289812 -4.7017307
000150 fb 6b 9e bc 06 e4 0c 3f 05 77 b8 40 22 06 7c 41
       -0.019338598 0.55035436 5.7645288 15.751497
000160 fc f7 61 3f d5 4f c7 41 aa c4 34 3d 1d c1 2f bf
       0.8826902 24.91398 0.044132866 -0.6865404
000170 39 0b 7d bf ee c1 37 41 a0 1b d4 be c2 1c c6 40
       -0.9884525 11.484846 -0.41427326 6.1910105
000180 04 c2 44 3e 65 38 f8 be 22 a8 a9 c0 a5 55 c4 40
       0.19214636 -0.48480526 -5.301774 6.1354547
000190 1c db 0e bf 7a 64 99 c0 9c 0f dd 3c 37 00 74 40
       -0.55803084 -4.793515 0.026984982 3.812513
0001a0 b7 d5 bb 40 ab c5 05 c0 f3 fe 3a 40 cb 60 9f 40
       5.869838 -2.0901897 2.9218109 4.9805655
0001b0 98 62 bd be 57 a8 5f 3e 89 94 aa 3e 0a 5e cf 3e
       -0.36989284 0.2184156 0.33316448 0.40501434
0001c0 97 2a 87 bd 2b df 96 3e a1 b5 b3 be 26 78 76 3f
       -0.0659992 0.2946714 -0.3509951 0.9627708
0001d0 0f 83 6b c1 47 3d 02 c1 d7 75 37 3f 54 83 f0 c0
       -14.719497 -8.13996 0.71664184 -7.5160313
0001e0 da fc c9 be 8e ad f7 3d c1 86 79 3e 50 90 ee 3c
       -0.39450723 0.1209365 0.24367811 0.029121548
0001f0 7d 27 8c bd d4 cd 91 be 72 28 fd 3c f1 40 d3 c0
       -0.06843469 -0.28477347 0.030903075 -6.6016774
000200 2c 35 bb c0 55 69 35 be 79 b0 81 c0 4b 53 05 c1
       -5.8502407 -0.17715962 -4.052792 -8.332835
000210 59 5e 94 bc 92 c6 8b 3e 7e 3f a8 40 29 88 7f 41
       -0.018111395 0.27299935 5.2577505 15.970742
000220 2a c5 5a 3f e4 65 c7 41 62 7c a6 3e b7 95 9d bf
       0.854571 24.924751 0.32516772 -1.2311314
000230 78 1a ad c0 66 29 c9 40 14 c1 72 bf 86 b0 85 c0
       -5.409481 6.2863035 -0.94825864 -4.1777983
000240 3d 98 26 3e d4 a1 36 bf ce 4b 81 be 57 63 46 41
       0.16269012 -0.7134068 -0.25253147 12.399253
000250 d5 6c a9 be b9 43 c0 40 1a 16 b6 3d a4 27 99 c0
       -0.33090845 6.008267 0.08890934 -4.786089
000260 b6 f4 d3 c0 67 46 94 bf 90 74 76 c0 e0 c9 fb c0
       -6.623622 -1.1583985 -3.8508644 -7.868393
000270 f0 a3 e7 be 7e 4c ed 3e 95 1a 8a c0 85 0f 7c bf
       -0.45242262 0.4634742 -4.315745 -0.9846118
000280 9f a3 ad 3e e0 75 0b c0 84 cf 2f 3d 59 34 9e bf
       0.33913895 -2.1790695 0.04292251 -1.2359725
000290 88 6d 85 c1 46 52 05 c1 31 91 64 3f d5 8d a4 c1
       -16.678482 -8.332586 0.89284045 -20.569254
0002a0 f3 39 73 bc 33 85 03 3f 3f 92 87 40 d8 22 81 41
       -0.014845359 0.5137512 4.2366023 16.142014
0002b0 f9 e6 14 3f 5c 8d c7 41 d9 b4 2f be 62 1d 16 3e
       0.58164936 24.944023 -0.17158832 0.14659646
0002c0 c6 c5 cc be dd 1f 91 be 7e 58 63 bc ec bb 7f be
       -0.3999464 -0.28344622 -0.013876079 -0.2497403
0002d0 1c 61 0a bd 80 a1 bb 3e d7 9e 8f c1 2e b0 0e c1
       -0.033784017 0.36646652 -17.952559 -8.918013
0002e0 15 83 4d 3f 16 d4 04 c1 6f e4 8b bd d4 82 a3 be
       0.8027814 -8.301779 -0.068306796 -0.3193575
0002f0 5f 87 00 be 0d ab 84 3e 7e 37 8f be ea 99 3a 3e
       -0.1255164 0.2591175 -0.27972025 0.18222776
000300 1b b6 a7 be 42 a5 41 3f df 00 58 c1 98 8a 06 c1
       -0.32756123 0.7564279 -13.500213 -8.408836
000310 53 90 32 3f 04 8c dc c0 23 4a 16 be e6 42 b3 3e
       0.6975147 -6.8920918 -0.14676718 0.35011977
000320 d0 d1 b5 3e 22 b0 b9 3e 52 ad cb bd 39 34 2b be
       0.35511637 0.3626719 -0.099451676 -0.1671914
000330 c3 74 48 be b3 3e ab be b0 3c 29 bd 12 26 a2 be
       -0.19575791 -0.33446273 -0.04131764 -0.3166967
000340 e1 a7 ae be eb 68 89 3d c2 eb 5b bc 26 e1 af 3e
       -0.34112456 0.06709465 -0.013422908 0.34351462
000350 29 2d 7e 40 b2 06 81 41 c1 e6 14 3f 96 16 c4 41
       3.9715064 16.12827 0.581646 24.511028
000360 a5 18 a0 3c d9 fd 85 40 7a 15 7a 40 7f ce 57 be
       0.019543001 4.1872373 3.9075608 -0.21074866
000370 f4 4e 2e 40 6a a3 db 40 12 2d a0 bb 11 d0 8c c0
       2.723569 6.863698 -0.0048881853 -4.4003987
000380 f1 a6 fe c0 91 18 1d c1 a9 d7 9a c0 6a 76 90 40
       -7.9578786 -9.818498 -4.8388257 4.514455
000390 2c 19 ba 3c a0 6c ca c0 c7 b5 fa c0 5a ac 2c c0
       0.022717081 -6.32576 -7.8346896 -2.6980195
0003a0 e9 b4 9a c0 90 df ab c0 b0 5b 80 be c2 af 87 3d
       -4.8345838 -5.3710403 -0.25069952 0.0662532
0003b0 65 d2 78 be 4d 87 c9 3e aa 84 2a be c5 d8 a4 be
       -0.24299009 0.3936104 -0.1665217 -0.32196632
0003c0 fe 6f ce be 64 dc 95 3e 6e 01 2a 40 fa 4f 16 bf
       -0.40319818 0.29269707 2.6563373 -0.58715785
0003d0 1e 94 93 3d 67 d1 e2 c0 81 d5 19 bf 9f c8 1f 3f
       0.072059855 -7.088062 -0.60091406 0.624155
0003e0 28 05 92 c0 47 b6 9a bf db 76 03 3f 97 67 2b c0
       -4.5631294 -1.2086877 0.51353234 -2.6781976
0003f0 1c ac ca 3c 91 2e d4 3e ae ff 2a 40 80 77 bb 40
       0.024740271 0.41441777 2.6718554 5.8583374

net.0.bias f4 [64]
000000 45 74 b1 41 d8 b0 d3 41 4a 41 52 41 46 87 81 be
       22.181772 26.46135 13.14094 -0.25298518
000010 cc c1 0f bd 3e e5 6e be f9 da d1 41 8c 35 c2 41
       -0.03509693 -0.23329636 26.23192 24.276146
000020 ed de bf 41 d2 0b 15 c1 46 3c d1 41 31 fa 8b 3e
       23.98385 -9.315386 26.15443 0.27339318
000030 e6 7a d6 41 2e d5 c5 41 6f 87 c1 41 8c 6f c1 41
       26.810009 24.729092 24.19113 24.179466
000040 7f 91 cb 41 34 e9 bc c1 05 f0 06 3e 16 8a 13 c1
       25.446043 -23.613869 0.13177498 -9.221212
000050 d5 5e 85 be d4 57 a7 41 af da c6 41 7c 6f cc 41
       -0.26048914 20.917885 24.85678 25.554436
000060 b7 93 d2 41 44 11 a4 41 08 bf d5 bf b2 a5 e0 c0
       26.322126 20.50843 -1.6698923 -7.0202265
000070 d2 95 c8 41 01 dc 53 3e d5 7c 21 c1 f2 93 46 be
       25.073154 0.20689394 -10.092977 -0.19392374
000080 4d 8d 18 c1 a9 46 bb 3e 72 84 d4 bd ee ab cb 41
       -9.534497 0.36577347 -0.103768244 25.45895
000090 32 57 b5 c1 5d d5 8d 41 3a 2f a2 41 d9 29 cd be
       -22.667576 17.729181 20.27306 -0.4007099
0000a0 3a f6 19 3e 8d d7 9e bf 01 22 f1 40 c5 ab cd 41
       0.15035334 -1.2409531 7.535401 25.708872
0000b0 c9 b1 ca 40 a0 02 bf c1 9f 30 6a 3e 81 94 c8 41
       6.3342023 -23.876282 0.2287011 25.072512
0000c0 5f de d0 be 03 ac c4 bd 63 0b 89 41 06 34 0c c1
       -0.40794656 -0.09603121 17.13056 -8.762701
0000d0 91 18 ce 41 f7 5a c1 41 8c c9 7f 41 b6 91 d0 41
       25.761995 24.169416 15.986706 26.071148
0000e0 6d ef 8c bc 9e d7 9e 41 7b 50 bf 41 67 8c 15 c1
       -0.01720401 19.855282 23.914297 -9.346778
0000f0 b8 05 31 be 9d 32 7e be 50 30 07 c1 40 ef 12 c1
       -0.17287338 -0.24823995 -8.449295 -9.183411

net.2.weight f4 [64, 64]
000000 ae 98 ea 3c e8 59 0d 3d c2 b6 22 bd 9c 7c ed bd
       0.028637256 0.03450957 -0.039725073 -0.11596033
000010 28 5a c0 bd fa eb ca bd 40 12 20 be 81 0a b9 bd
       -0.09392196 -0.0990829 -0.15631962 -0.090352066
000020 bd 44 7f 3d b4 d3 32 3d 4c 2e 94 3d 24 e0 b9 3d
       0.062321413 0.043658927 0.07235393 0.090759546
000030 b6 bb de bd 97 79 09 3d e8 34 65 bc c3 2c 2b be
       -0.10875647 0.033563223 -0.013989665 -0.16716294
000040 50 21 f2 3b 13 64 0c be 90 c5 af bd a3 e6 2d bd
       0.007389225 -0.1371005 -0.08582604 -0.04245628
000050 b0 20 2a bd 82 39 17 be ff 78 e1 bc 30 c8 02 bd
       -0.04153508 -0.14768031 -0.027523516 -0.031929195
000060 ff 4d 9b 3c d9 85 66 bd 46 22 88 bd 00 e1 54 bc
       0.01895809 -0.05627999 -0.06647162 -0.012993097
000070 75 2d 78 3c 9e 2c ab 3d 41 9c 13 3d a0 f6 19 3c
       0.015147557 0.083581194 0.036037687 0.009397179
000080 49 ae d9 3d f8 94 66 bd 2a a2 d5 3d 05 a7 32 bd
       0.106289454 -0.05629441 0.10431321 -0.043616313
000090 c8 0e b3 ba f8 d1 51 bd 5f 99 a1 bd 46 ca ef bd
       -0.0013661021 -0.051225632 -0.07890581 -0.117085025
0000a0 01 f8 bf bd 7c c7 81 3d 34 b8 96 bd b3 eb 8f 3d
       -0.09373475 0.06336877 -0.07359353 0.07027378
0000b0 db f1 da bd e1 1b 5f 3d 4a 0c 08 bd 27 8a c5 bd
       -0.106906615 0.054469947 -0.033214845 -0.09645491
0000c0 3c 9b c9 bb 88 7a d0 3d 55 68 54 3d 46 ab 8d bd
       -0.0061525386 0.10179621 0.05185731 -0.069174334
0000d0 91 aa 1d bd 8a eb 45 bc 8b 68 68 3d 1b 86 2a bd
       -0.038492743 -0.012080083 0.056740325 -0.0416318
0000e0 e0 71 cd bb d8 d4 89 3d f0 64 11 3d a6 f1 aa bd
       -0.0062696785 0.0673005 0.035496652 -0.08346872
0000f0 c0 8e 92 3c ea a8 a9 bd bb 9a 5a 3d 58 47 e7 bc
       0.017890334 -0.08284171 0.05337022 -0.028232262
000100 19 b3 54 3f d6 9b 2b 3d 88 00 d2 40 92 b7 d6 3d
       0.8308578 0.041896664 6.562565 0.10484232
000110 6e 4d fb bd e0 e1 aa bb 40 9a 3c 3e 74 cd 07 3d
       -0.12270628 -0.0052149147 0.18418217 0.03315492
000120 01 d7 9f 3e a5 02 71 be 37 64 36 3e d0 2d 2e 3d
       0.31218722 -0.23536165 0.17811666 0.04252416
000130 9b 35 20 3e 01 5d 8b 3e 25 95 a6 3f fd e2 df 3b
       0.15645449 0.27219394 1.3014265 0.006832479
000140 b7 68 cc 3d 55 ff 14 bf 78 fb f6 bd b1 ab b1 be
       0.0998091 -0.58202106 -0.120596826 -0.34701303
000150 86 32 f6 3d 2e 2b 56 40 2d f3 ba 3f 4b 91 83 3c
       0.12021355 3.3463855 1.4605461 0.016060492
000160 99 89 1b 3e 8e a4 70 3e 82 e0 83 be 5b 64 b1 be
       0.15189208 0.23500273 -0.25757223 -0.34646878
000170 2f 82 ff 3f 48 aa d2 bc 2a 33 a6 3e 6c 07 1d 3d
       1.9961604 -0.025715962 0.3246091 0.038337156
000180 ea b6 f2 bd b8 9a 78 3d 96 65 e3 3d e8 33 0c 40
       -0.11851294 0.060694426 0.1110336 2.190668
000190 39 7f d1 be 61 ca 00 41 7b e3 81 40 12 fd e5 bd
       -0.40917376 8.049409 4.0590186 -0.1122991
0001a0 f3 b9 40 bf 97 c9 4c be 92 9d 17 bd 9d 4e eb 3f
       -0.75283736 -0.19998775 -0.037015505 1.8383366
0001b0 b9 2c f9 be b3 d3 18 bf 20 7b 81 bd 55 3b 0d 3e
       -0.48666933 -0.5969803 -0.06322312 0.13792165
0001c0 71 41 8d be b4 7b 19 3d 81 ae 80 3f 0c d6 42 bf
       -0.2758899 0.037471488 1.0053254 -0.7610786
0001d0 82 bf 97 bd 04 eb 58 3e b0 35 b9 40 a2 95 8c 3d
       -0.07409574 0.21183401 5.7878036 0.06864478
0001e0 66 bf db bd b6 51 c0 3e be 90 8c 3e d0 50 a7 bd
       -0.10729866 0.3756234 0.2745418 -0.08169711
0001f0 30 92 cb 3d 66 93 f1 3d d2 47 28 bd 65 cb b3 bd
       0.099399924 0.11795692 -0.04108412 -0.08779029
000200 f5 2a 6e 3d b8 22 c7 bd 15 bc 96 3e 78 b0 65 bd
       0.058146436 -0.09723419 0.2944037 -0.056076497
000210 cc 71 4e bd 04 79 1e 3d 0d 47 23 bd c1 7d 11 be
       -0.050401494 0.03868963 -0.03986268 -0.14208128
000220 e8 31 82 bd 2a d1 49 bd 05 73 a4 bd f8 8f e4 3d
       -0.06357175 -0.04927174 -0.08029751 0.11160272
000230 2d b2 34 bc 20 14 76 bd a6 3a ee bd f2 50 2a bd
       -0.011028809 -0.060077786 -0.1163228 -0.0415811
000240 8d 37 35 be f8 5f e9 bd e4 4b a4 bd f7 d5 15 3d
       -0.17696972 -0.11395258 -0.080222875 0.036581006
000250 a8 6e bd bc 47 c3 8d bd fa 2b c9 bd 62 7c c9 3c
       -0.023124054 -0.06922012 -0.09822841 0.024595443
000260 ac 7b ff 3c 2f b9 87 bd 93 0e ee bb cb 70 66 bd
       0.031186901 -0.06627118 -0.007264921 -0.05625991
000270 38 0f f6 bd f8 5b 85 bd 59 3a f8 bb 66 82 8c bd
       -0.120146215 -0.06511682 -0.007575315 -0.06860809
000280 2e 0b 83 bc 4c 58 dd 3d d6 44 e1 3d 3d 84 d7 bd
       -0.015996542 0.10807857 0.109994575 -0.10523269
000290 73 b9 00 be 35 b1 ec 3d d0 d0 37 3e f0 87 49 bc
       -0.12570743 0.11557237 0.1795075 -0.012300476
0002a0 5a 64 27 3d d6 8e 1a bb 0c 8a 8d bd 5b c0 7b bd
       0.040867187 -0.0023583672 -0.06911096 -0.06146274
0002b0 44 4e 64 bd 36 02 89 bb 04 95 ec bd 47 33 7d 3d
       -0.055738702 -0.004181172 -0.1155186 0.06181648
0002c0 e0 e8 48 bd 0c 04 f0 3d ad fc 77 3e 31 4b 96 bd
       -0.049050212 0.11719522 0.24217482 -0.073385604
0002d0 84 fc 59 bc c9 a6 23 3b bf 77 18 3d e7 09 fa bc
       -0.013304833 0.0024971238 0.037223574 -0.0305223
0002e0 7c cf 82 bd f9 9f 53 3d a8 09 36 bd 00 25 4b 3d
       -0.06387231 0.051666234 -0.044442803 0.049595833
0002f0 d0 3b f2 bc 34 88 06 bd ce c1 bc bd eb 94 a3 3c
       -0.029569536 -0.032844737 -0.09216653 0.01996847
000300 8b 03 05 be 93 ff 53 bd 5c 42 a8 bd bc b3 25 3d
       -0.12989633 -0.051757406 -0.08215782 0.04045461
000310 88 2f f4 3d 70 58 00 3c d2 17 0e be 5e 66 69 bd
       0.11923128 0.007833585 -0.13876274 -0.05698239
000320 cc f1 53 3d 22 70 7d 3c 9b 14 8f bd c0 e4 d3 bc
       0.051744267 0.015468629 -0.06986352 -0.025865912
000330 24 94 6a 3d 07 a1 01 be 99 96 f3 bc 10 cb 96 bc
       0.057270184 -0.12659083 -0.029734896 -0.018407375
000340 20 38 91 bd af 00 cd bd d8 13 e3 3d 23 6a ac 3d
       -0.07090783 -0.10009896 0.11087769 0.084186815
000350 a0 a8 92 bb 56 80 ca bd b4 31 95 3d 8b 9b b8 3d
       -0.004475668 -0.098877594 0.07284871 0.090140425
000360 4a 51 96 bd 74 35 2b 3d 54 e5 a4 bd ee f6 9f bc
       -0.073397234 0.041799024 -0.08051553 -0.019526925
000370 94 3f c8 bd 5c 30 04 3d ce 1c 42 bb fc d4 73 3d
       -0.097777516 0.03227268 -0.002961922 0.05952929
000380 0d e9 10 3d 04 55 98 3d 58 ee b7 bd b9 db 67 3c
       0.035378505 0.074380904 -0.08981007 0.014151507
000390 83 f7 0a be ed d8 60 3d 38 36 77 bd 9c 29 21 bd
       -0.1357098 0.054894377 -0.06035444 -0.039346322
0003a0 4b f9 66 3d f4 71 fe bd f3 e0 69 3d e4 6f 61 3d
       0.056390088 -0.124240786 0.057099294 0.055038348
0003b0 20 e7 58 3c fb d4 93 3d 73 00 eb bd 36 6f 9c 3c
       0.013238698 0.07218357 -0.11474695 0.019095998
0003c0 44 e4 15 be bc 5d fd 3d 8b 10 9f 3d 1b cc 9a bc
       -0.14637858 0.12371394 0.07766827 -0.018896153
0003d0 9a 79 16 3d cf 2b e5 bd 6c f5 bf 3d 9f e8 67 bd
       0.036737062 -0.111899965 0.093729824 -0.05661833
0003e0 4e ed f9 3d 23 5b 57 3c fe 9d 8f 3d f3 15 b7 3d
       0.122034654 0.013144287 0.070125565 0.08939733
0003f0 50 40 47 bd 48 2d ff bd 1e 2c 8c bd 74 d4 8b bc
       -0.048645318 -0.124598086 -0.06844352 -0.017069079

net.2.bias f4 [64]
000000 a2 b6 b0 bd 0f d4 da 41 b6 63 95 3e f6 60 26 3c
       -0.086285844 27.353544 0.29177636 0.010154953
000010 f3 e9 d8 41 64 08 7a 3d a6 28 d5 41 37 d3 85 3d
       27.114233 0.06104316 26.644848 0.06534427
000020 6c c5 80 c1 a7 8f 95 41 04 15 78 c1 68 7a 49 3d
       -16.096397 18.695143 -15.505131 0.049189
000030 a3 bc 63 bd fa 3a d8 41 70 f7 ad 41 fa 9d d4 bd
       -0.05559982 27.028797 21.74582 -0.10381694
000040 20 9d 90 41 05 21 c9 41 27 43 d0 41 49 ee a8 bd
       18.076721 25.141123 26.03279 -0.08248574
000050 70 fc e7 3c 05 21 d3 41 9a 6e ca bf c3 75 d2 41
       0.028318614 26.391123 -1.5815003 26.3075
000060 17 84 51 3d 91 69 c7 41 94 0f b8 41 2e 82 cc 41
       0.05115136 24.926546 23.007607 25.563564
000070 f2 1d dd 3d 06 fd c6 bd c9 a5 2a 3d 13 a3 21 3d
       0.10796727 -0.09716229 0.04166201 0.03946216
000080 cd 20 dc 41 0b ee 3b bd 04 35 39 bd 73 c4 d2 41
       27.516016 -0.045881312 -0.045216575 26.345922
000090 d2 bd 51 bd d3 4e 89 3e 51 80 b4 41 2e 8a 86 bd
       -0.051206417 0.2681795 22.562654 -0.065693244
0000a0 98 f6 c7 41 e1 21 cf 41 a4 c3 dd 41 b4 8d cb 41
       24.995407 25.891542 27.720528 25.444191
0000b0 2c 19 cc bd a4 1a da bc 71 71 18 bb ae fc 6a 3e
       -0.09965739 -0.026624031 -0.0023260976 0.22947952
0000c0 79 8f c8 41 4e 21 bc bd 58 b9 6e 3d de 04 ce 41
       25.070055 -0.0918604 0.058282226 25.752377
0000d0 38 d3 db bf ba e4 b2 bd e9 dc d0 41 07 50 e8 bd
       -1.7173834 -0.087350324 26.107866 -0.11343389
0000e0 d8 6b 77 bc 87 6c b5 bd 69 0e f8 bd 3d 69 95 3d
       -0.015101396 -0.088585906 -0.121121235 0.07295463
0000f0 79 42 c7 c1 ce df 7f bd 51 53 e7 bd 76 1f 23 3c
       -24.907457 -0.062469296 -0.11295188 0.009956231

net.4.weight f4 [4, 64]
000000 39 50 3b 3d 5d 0c 1b 3f ba 9d 2f 3d 20 6d 8b 3d
       0.045730803 0.6056574 0.04287503 0.06807923
000010 66 83 d3 3e 94 93 b8 bd 10 29 06 3f d3 32 e8 bd
       0.41311187 -0.09012523 0.52406406 -0.11337819
000020 25 99 5c be b9 4f df 3e ac 95 af be a8 47 d7 bd
       -0.21542795 0.4361551 -0.34293878 -0.10511714
000030 88 24 97 bd a0 94 f8 3e 44 ad a3 3e 6b 5a b0 bc
       -0.07380015 0.48550892 0.3196813 -0.02152749
000040 79 17 53 3f ce 12 a9 3e 12 fc d5 3e 71 2a c3 bd
       0.8245769 0.3302216 0.41793877 -0.095295794
000050 80 1b a8 bd cd d2 13 3f 4c 97 c8 3e 0b 32 fc 3e
       -0.0820837 0.5774353 0.3917793 0.4925693
000060 86 d5 d5 3d 34 6a 2f 3e bc f0 0f 3f 15 cf 14 3e
       0.10441117 0.17130357 0.56226707 0.1453212
000070 44 b2 ae bd e0 7c 9d 3d 98 4b e3 bc 60 dd 83 bd
       -0.08530095 0.07689834 -0.027746007 -0.06438708
000080 a5 86 01 3f 7c e4 8c bd 68 42 fe bd 30 5d 12 3f
       0.50596076 -0.068795174 -0.1241501 0.5717344
000090 bc 21 82 bd 2d 04 96 bd e8 76 91 3f 22 1a b9 bd
       -0.063540906 -0.07325015 1.1364412 -0.090381876
0000a0 64 4b 35 3e 0c 26 35 3f 4d ff 14 3f 18 d9 8c 3e
       0.1770454 0.7076118 0.5820206 0.2750938
0000b0 a8 b0 15 3d 83 87 13 3b 4e 9b fa bc 44 f4 83 3d
       0.036545426 0.0022511191 -0.030591633 0.06443074
0000c0 16 90 50 3f ba 30 1b 3c fc 20 52 3d bf be 35 3f
       0.8146986 0.009472067 0.051300988 0.7099418
0000d0 09 e2 3f 3e 00 14 b8 bc c6 79 c0 3e f4 33 e3 bc
       0.1873857 -0.022470474 0.37592906 -0.027734734
0000e0 81 b9 86 3d 80 55 0f 3b 5c d1 0b 3e 1a 06 e6 bd
       0.06578351 0.002187103 0.13654083 -0.112316325
0000f0 ca b1 fa bf b2 a0 b6 bd 07 f7 8b bd c4 6a db 3d
       -1.9585507 -0.08917369 -0.06834226 0.10713723
000100 4e 42 c4 bc 03 94 31 3f 32 0f 9c 3d c6 95 2d bc
       -0.023957398 0.6936647 0.07620086 -0.010594791
000110 e2 7a 1a 3f b0 d7 f9 bc e9 a6 49 3f 59 41 ac 3d
       0.60343754 -0.030498356 0.7877031 0.084109016
000120 cc 57 df be a1 6c b6 3f f7 36 ee be 80 87 cd bb
       -0.4362167 1.4251901 -0.4652631 -0.0062722564
000130 fc fd 55 bd 20 2f 4b 3f 2a fe 02 3f 3a 50 69 3c
       -0.05224417 0.7936878 0.51169074 0.014240319
000140 a9 2b d3 3f 84 74 d6 3e 17 e2 bc 3e 83 92 87 bd
       1.6497699 0.4188577 0.36891243 -0.06619742
000150 38 8a 3f 3d d5 85 2b 3f 32 cc b7 3e a8 02 0e 3f
       0.046762675 0.67001086 0.35897976 0.55472803
000160 b6 53 2d bd cb 47 cf 3e f5 52 84 3f 2f ab b8 3e
       -0.04231616 0.4048446 1.0337816 0.36068103
000170 f7 68 6d bd 80 46 92 3b 2f 2f 3a bc e1 46 01 be
       -0.05796143 0.0044639707 -0.0113637885 -0.12624694
000180 fd 95 33 3f c9 46 34 bc c0 f3 9e bc db 87 40 3f
       0.7015074 -0.011003205 -0.019403338 0.752073
000190 2e 68 30 bd ab f3 a8 3d e9 e6 94 3f 64 e1 27 3d
       -0.043068103 0.08249601 1.1632968 0.040986434
0001a0 11 95 9b 3e ea 22 8f 3f 10 2c 69 3f e4 36 e4 3e
       0.30387166 1.118253 0.9108286 0.44573128
0001b0 84 76 c7 bd a7 57 01 bd f6 e8 a3 bd 4f 15 13 3b
       -0.09739402 -0.031577732 -0.08003418 0.002244312
0001c0 97 83 19 3f 43 14 9c bd 60 f0 c3 3b 17 67 8f 3f
       0.59966415 -0.07621052 0.0059795827 1.1203336
0001d0 08 24 a8 3e ed a3 58 3d ab b6 f8 3e 76 ae be bd
       0.3283999 0.052890707 0.48576865 -0.093106195
0001e0 d8 f2 b1 3c 40 3f 18 bc 8e d8 a4 b8 63 70 b4 bd
       0.021722242 -0.009292424 -7.860466e-05 -0.088104986
0001f0 86 5e 3f c0 6c e6 a8 3c 3e 96 6f bd 85 6e 15 bd
       -2.9901443 0.020617686 -0.05849289 -0.036482353
000200 4d 60 9d bd 06 70 83 3f d0 12 af bd 1c ba 53 3c
       -0.076843835 1.0268562 -0.0854851 0.01292279
000210 f5 3f 7d 3f 60 a9 53 bc 25 f6 8b 3f d3 11 d9 ba
       0.98925716 -0.0129188 1.0934492 -0.0016561098
000220 ad 31 07 bf eb 1a 97 40 ce c7 10 bf 68 9a b8 bd
       -0.52810174 4.722036 -0.5655488 -0.09013826
000230 a5 f9 72 bb 35 ec 95 3f aa 24 9a 3e 01 84 71 bd
       -0.003707507 1.171271 0.30106097 -0.05896378
000240 0e db cf 40 8b 88 6f 3f 18 25 70 3f 97 af 9a 3d
       6.49549 0.93567723 0.938066 0.07553022
000250 ec ba 4d 3d 28 ff 7b 3f 94 7e b2 3d 70 fa 6d 3f
       0.05022709 0.9843621 0.08715549 0.9296026
000260 e8 77 a7 bd eb d7 32 3f bb 9f 35 3f 25 cd 55 3f
       -0.08177167 0.69860715 0.70946854 0.8351615
000270 3a db 9a 3c ec 1e ed 3d 4c ed ab bd 44 f5 cb bd
       0.018903363 0.115781635 -0.0839487 -0.0995889
000280 10 a9 7f 3f 94 be 41 bd 10 e4 39 3c 1b dc 89 3f
       0.99867344 -0.04730089 0.011345878 1.0770296
000290 33 d9 a3 3d b0 bd 03 bc 15 25 96 3f 18 4a 0e 3d
       0.08000412 -0.0080408305 1.1730067 0.03473863
0002a0 1d ff 4f 3f 89 81 99 3f d5 6f 8e 3f ac 8d 54 3f
       0.81248647 1.1992656 1.1127878 0.83028674
0002b0 08 40 fa bc 69 06 09 3d 80 96 ac 3c b0 8c 54 3d
       -0.03054811 0.03345338 0.021067858 0.051891983
0002c0 8b 6d df 3f 0d e5 d0 3d 60 e4 e2 3c 84 53 c3 3f
       1.7455305 0.10199938 0.027696788 1.5259862
0002d0 2c ed c0 3d 77 63 a9 bd 35 d9 6c 3f b0 40 a8 3d
       0.09420237 -0.082709245 0.9251893 0.08215463
0002e0 30 56 be 3d ea 3e 3b bd 51 7c 5e bd 78 27 b3 bd
       0.09293783 -0.045714296 -0.054317776 -0.087477624
0002f0 55 b7 c8 bf ce 88 d8 3c c2 e2 8e bd 92 08 34 bd
       -1.5680948 0.026432421 -0.06976844 -0.043953486
000300 7e 04 47 3d 1a 1e 97 3f cb c6 c6 3c 37 bd f5 3b
       0.04858827 1.1806061 0.024264714 0.007499363
000310 79 6e 84 3f 3c 7d 09 3d 8d b1 af 3f 06 2b cd 3d
       1.0346214 0.0335667 1.3726059 0.10017972
000320 2b 8c be be 91 26 cf 40 c0 2d 3b bf 0a 24 a6 bd
       -0.37216315 6.473458 -0.73116684 -0.08112343
000330 1f 40 dd bb 95 5b 99 3f d3 a1 90 3f 46 3b a1 3c
       -0.0067520286 1.1981074 1.1299385 0.019681584
000340 bc 0f 0d 41 a6 e7 9c 3f cb 12 8c 3f 76 5e a2 3b
       8.816341 1.2258193 1.0943235 0.0049551083
000350 ce c0 8f 3c 64 21 9c 3f 1a 5d 7e be 5b 4e 98 3f
       0.017547991 1.219769 -0.24840203 1.1898912
000360 b9 38 30 bd 72 75 81 3f a5 e0 8b 3f 47 41 78 3f
       -0.043022845 1.0113966 1.0927931 0.96974605
000370 98 ac a5 3d 58 44 a4 3c fa 3e c6 bd 0b 00 27 3d
       0.0808956 0.02005212 -0.096799806 0.040771525
000380 a1 5f 84 3f 21 b9 94 bd 84 a2 f1 bd db 0d ab 3f
       1.0341684 -0.07261873 -0.117985755 1.3363603
000390 20 0d 9a 3c 75 9c fb 3d 9f c3 11 40 60 86 69 3c
       0.018805087 0.12285701 2.2775648 0.014253229
0003a0 5b 10 84 3f dc 41 f1 3f 25 e2 a2 3f 1f 40 8a 3f
       1.0317491 1.8848224 1.2725264 1.0800818
0003b0 5c cc be bd 51 12 80 bc 36 df 85 bd 7f f8 5a bd
       -0.09316322 -0.015633734 -0.06536715 -0.05345964
0003c0 08 93 ca 3e c6 ba bf 3d c8 de be 3d 03 30 1e 40
       0.395653 0.09361796 0.09319836 2.4716804
0003d0 9f d0 21 be b4 4e a3 bd cd 50 8e 3f 08 f9 e4 3c
       -0.15802239 -0.07973996 1.1118408 0.027950779
0003e0 07 10 b7 3d c0 25 ce bb 47 52 61 bd 40 8e 8f 3c
       0.08938604 -0.0062911212 -0.055010106 0.017523885
0003f0 fe a6 ff bf 43 86 5c bd f9 e0 ea 3d 77 20 98 bc
       -1.9972837 -0.05383898 0.114686914 -0.018570168

net.4.bias f4 [4]
000000 e5 59 47 41 b8 dc 52 41 6e a2 6b 41 d8 6f af 41
       12.459447 13.178886 14.727156 21.929611
